models/model.pth (torch, 491215 bytes, 8 tensors)

fc1.weight f4 [128, 688]
000000 a5 d9 0d 3d 67 2d 26 3d e5 4a a5 3b c9 64 a5 bc
       0.03463139 0.040570643 0.0050443285 -0.02018966
000010 36 76 a5 3c 53 65 88 3c 3f 6b 26 3d 5c 5f fe bc
       0.020197969 0.016649878 0.04062962 -0.03105133
000020 96 e6 7e bc 86 29 7f 3d ef 16 fa bc 89 67 4f bd
       -0.015557906 0.06229546 -0.030528514 -0.05063585
000030 01 05 99 bc 69 cb b0 3d e8 52 89 3d 47 f5 0d 3d
       -0.018679144 0.086325474 0.06705266 0.034657743
000040 76 49 9d bc 17 ea ec bc 7b 83 37 bd 9d 18 50 bd
       -0.019200068 -0.028920216 -0.044803124 -0.050804723
000050 ae 93 b1 bc e1 1e 5b 3d fa 06 1a 3d 3f 94 04 3d
       -0.021676864 0.053496245 0.03760431 0.03236794
000060 9c 98 f1 bc ef 9e c5 bc 18 c7 76 3c b2 74 8c bd
       -0.029491715 -0.024123637 0.015062116 -0.06858195
000070 d3 a5 b1 bd df bc ed bc 6d 66 2b bb 72 aa 0b bd
       -0.086742066 -0.029020725 -0.002615358 -0.034098096
000080 c8 45 83 3d 23 23 5b 3c 4f 1e dd 3b e5 82 93 bb
       0.06409794 0.013375076 0.006747998 -0.004501688
000090 32 9b 84 3c f6 82 a0 3c f0 a7 51 3d 83 83 e1 3c
       0.016187284 0.019593697 0.05118555 0.02752853
0000a0 7d 30 f8 bc a7 38 02 bd 38 d0 f6 bd 08 ce e5 3a
       -0.030296559 -0.03179231 -0.12051433 0.0017532716
0000b0 3c 90 cc bc 51 40 fa bc d2 de 11 bc 45 54 dc bc
       -0.02497112 -0.030548247 -0.008903222 -0.026895652
0000c0 f0 2b cb bb bf 54 7c 3c b4 38 98 3d 7e 1d 8a 3b
       -0.006200306 0.015401064 0.0743269 0.0042149415
0000d0 2d f0 0c 3d 8c 88 a3 bc 92 a8 be 3c ed bf 84 3c
       0.034408737 -0.019962572 0.02327374 0.016204799
0000e0 ca 3c 11 3d 85 ac 5f 3d fe ed 81 3a cf eb 3d bc
       0.035458364 0.054607887 0.0009912846 -0.011591866
0000f0 14 14 66 bc 20 f9 57 bd 89 fc cc bc 39 70 de bd
       -0.014042873 -0.05272782 -0.025022762 -0.108612485
000100 79 c3 4b 3b bb d8 96 b9 03 77 dd 3c 59 5e 1d 3d
       0.0031091853 -0.00028771706 0.027034288 0.038420055
000110 b0 b3 f8 bc d2 f5 91 3b 01 f1 f1 3c 30 9b a2 bc
       -0.03035912 0.004454353 0.029533865 -0.01984939
000120 1b 6c de bc 35 31 3b 3d 92 1c e9 bc d9 6d 6f bc
       -0.027151158 0.045701224 -0.028456006 -0.014613592
000130 e4 30 cf 3c 08 f0 89 3c 72 a2 21 3c 3c 59 d8 bb
       0.025291868 0.016838089 0.00986539 -0.0066024344
000140 51 a3 e3 bc ee 79 eb 3a 77 6a 4c bd 2d 33 68 3d
       -0.027787836 0.0017965415 -0.04990622 0.05668943
000150 dc 25 c1 bc 56 e1 ee bc 1a ff b3 3c b5 d8 35 3d
       -0.023577623 -0.029160183 0.021972228 0.04439612
000160 79 a4 86 bc 31 61 5e 3d c2 c6 c1 3c d6 01 59 3d
       -0.016435849 0.054291908 0.023654345 0.052980267
000170 36 be 27 3d ef c7 25 3d 64 ad bb 3c b5 db aa bc
       0.040952884 0.040473875 0.022909828 -0.020856718
000180 68 ab aa 3c 02 37 77 3d 53 2f 80 3d f0 99 b8 bc
       0.020833686 0.060355194 0.062590264 -0.02253434
000190 08 fb 14 3d 4f 0b 35 3c fb f0 90 3d 68 56 8b 3c
       0.036372215 0.011050059 0.070772134 0.017008975
0001a0 f1 9a 9a 3d f5 69 43 bc 21 f4 3f 3d 69 b3 8e 3d
       0.07549084 -0.011927118 0.04686368 0.069678135
0001b0 e1 cb 34 3d b2 7b 79 bd 73 55 4f 3d c4 cf 33 bc
       0.044139747 -0.06090898 0.0506186 -0.010974828
0001c0 be 9b 3b 3d 40 a4 39 bd 72 a6 c9 3c 68 1a 59 3d
       0.045802824 -0.045322657 0.0246155 0.0530037
0001d0 62 0a 1a 3b 20 6f 7e bb cf 45 d7 3d e8 2c 8c 3c
       0.0023504724 -0.003882356 0.10511362 0.017111257
0001e0 f9 64 c2 3c 26 b8 91 3c d5 ed a4 3c fc a8 a8 bc
       0.023729788 0.017788004 0.020132938 -0.02058839
0001f0 49 2c ac bc 01 e0 2f bc 0e 65 0c bc 97 9c 82 3c
       -0.02101721 -0.010734559 -0.008569015 0.015943808
000200 6b 39 f5 3c f7 d0 1f bd 56 e9 b3 3c c6 d9 08 bd
       0.029934606 -0.039017644 0.02196185 -0.03341081
000210 c4 cc 8d 3c 7e 99 12 bd b3 71 8d bc 75 ed 85 bc
       0.017309554 -0.035790913 -0.01726613 -0.01634858
000220 d3 b4 12 bd 93 c2 10 3d 04 b1 cd bb aa 4f 0a bd
       -0.03581698 0.03534181 -0.0062772054 -0.03376738
000230 31 d3 af 3b d9 e5 d1 3c 4d 78 28 3c dc 2d 9c bd
       0.005365752 0.025622295 0.010282588 -0.076259345
000240 9e 77 15 bb ff b9 c7 3b 47 27 b7 ba 9f d0 10 bd
       -0.0022806893 0.0060951705 -0.0013973498 -0.035355207
000250 b6 72 83 bc 00 aa 22 bd 9e 73 18 3d ee 9f cf 3b
       -0.01604591 -0.039712906 0.037219636 0.006336204
000260 3b b7 e4 3b a1 4f 55 3d 01 5c 54 3d 55 05 1d 3d
       0.0069798506 0.052077893 0.051845554 0.038335163
000270 cf a7 fb 3d 4f 95 b8 3c ea 0a 2c 3d f8 c4 9b bc
       0.12287866 0.022532133 0.042002596 -0.01901482
000280 64 49 0c 3c b4 d3 69 3d 4d a5 86 3d fb 0c 0a 3d
       0.00856242 0.05708666 0.06574497 0.033703785
000290 27 f3 b8 3b 1f 50 37 3c 5a 0e 47 3d 96 67 19 3d
       0.0056442204 0.011188536 0.04859767 0.037452303
0002a0 c5 e1 7d bc 7e 22 95 bc 4c 1c 72 3c 27 88 32 3c
       -0.015495722 -0.018204924 0.014777254 0.010896719
0002b0 26 14 a0 3c 8e e1 a7 36 88 1a b2 3b 5b fe c0 bc
       0.019540858 5.003246e-06 0.0054352917 -0.023558786
0002c0 55 3c 5d bd 80 2d f5 bc 30 d5 85 bc 79 f0 62 3d
       -0.054012615 -0.029928923 -0.016337007 0.055405114
0002d0 80 cb b6 3c 8d 90 ea 3c fe 04 09 3d e0 51 83 bc
       0.022313833 0.02863338 0.033452027 -0.016030252
0002e0 30 b4 bf 3c 7f 72 fb bc e3 3d 15 3d 20 c5 23 3c
       0.02340135 -0.030694244 0.036435973 0.009995729
0002f0 15 50 3f bd 97 42 4e bc 0a 76 ed 3c 7f 2d 45 3c
       -0.04670723 -0.012589118 0.02898695 0.012034773
000300 30 ea 50 bc 57 fd 9f 38 2e 88 03 3d 32 25 f3 3b
       -0.012751147 7.628899e-05 0.032112293 0.0074202055
000310 d5 1b 2e 3d b7 de 5d 3c 52 ec 98 3c f8 71 11 bc
       0.04250701 0.013541869 0.018667374 -0.00887727
000320 c0 92 5a bc 56 99 84 3c 58 a1 d7 ba a8 da 09 3d
       -0.013340652 0.016186398 -0.0016451282 0.033655792
000330 2f 30 b2 3c d0 eb ef 3b 78 36 4c bd ee cc 92 3c
       0.021751491 0.007321812 -0.049856633 0.017919984
000340 97 fd f6 bc 8e 17 51 bd 93 01 ce bb c8 ae f8 bc
       -0.030150218 -0.051047854 -0.0062868088 -0.03035678
000350 d6 b2 6c 3d 90 81 3a bc c1 e9 18 bd 83 85 06 3c
       0.05778774 -0.011383429 -0.0373323 0.008210543
000360 50 5f 38 3c 45 25 ef bc b3 68 a9 3c 4e 25 d1 3c
       0.011253193 -0.029192576 0.020679807 0.025530484
000370 fd b4 21 3d 34 e3 59 3d d7 e4 70 bd f5 55 2e bc
       0.039479245 0.053195193 -0.05881199 -0.010640611
000380 9a 98 02 bc f4 b0 f0 3c 56 08 d8 3c db f2 2c 3d
       -0.007970953 0.029381253 0.026371162 0.042223793
000390 ba 52 24 bb 23 cf 10 3d 83 97 84 bc df f9 85 3c
       -0.0025073723 0.03535379 -0.016185528 0.0163545
0003a0 aa 65 f1 3c f8 26 0a bd da b9 3b bd 1e 1a 9e bc
       0.029467423 -0.03372857 -0.04583154 -0.019299563
0003b0 e8 2f bb bc 3f 5e 79 bd 12 34 c1 bc 2f 0e bb bc
       -0.022849992 -0.060880896 -0.0235844 -0.022833912
0003c0 d9 6b 65 bd 84 9c 80 3b 0e 81 13 bd d1 3d 49 3d
       -0.056011055 0.003924908 -0.036011748 0.04913122
0003d0 b0 df dc bc b7 81 1d bd 4e ed 18 3d ba 92 54 bd
       -0.026962131 -0.038453784 0.037335686 -0.05189774
0003e0 3f 63 86 bc 8a 07 4f 3d 09 b3 21 3d 33 4a c3 bb
       -0.016404746 0.0505443 0.03947738 -0.005959773
0003f0 a6 8a 53 bb 97 14 38 bd 50 fc cd bc 34 16 02 bd
       -0.0032278686 -0.04494151 -0.025144726 -0.031759456

fc1.bias f4 [128]
000000 3a c1 6e bb d4 70 cf 3c a7 32 c8 bc b9 49 41 bc
       -0.003643109 0.025322355 -0.024438215 -0.011797362
000010 e5 ca 7f bc 20 74 eb 3b b7 94 b7 3c 70 51 55 bc
       -0.015612339 0.007185474 0.02240978 -0.0130199045
000020 3e 0c ee 3c a1 cf 0f 3d 71 55 03 3c e6 8b da 3c
       0.029058572 0.03511012 0.008015976 0.026678037
000030 27 ed fa bc 07 a0 3c 3c da 39 89 3c 90 b6 53 bb
       -0.030630661 0.011512763 0.016751219 -0.003230486
000040 cc 90 ef b9 24 0f 02 3d e6 3c 01 3d fc 92 4b bb
       -0.00045693514 0.03175272 0.031552218 -0.0031062951
000050 4c 0c d1 bb d0 fc 0c bd 0c 0f 70 3b 96 1f 09 bd
       -0.0063796397 -0.03442079 0.0036630062 -0.03347739
000060 10 38 ee 3c 45 34 e3 3b 78 26 f2 3b b9 b5 1a bc
       0.029079467 0.0069337212 0.0073898397 -0.00944274
000070 e4 aa 07 3d 50 dd 41 3c b1 19 e9 3b 34 8a 86 bc
       0.03312196 0.01183255 0.0071136584 -0.016423322
000080 f6 dd 22 bc c9 de 22 3c 8a e8 0b 3c 06 14 a1 3c
       -0.009940615 0.009940811 0.008539328 0.019662868
000090 33 d0 08 ba 37 ac f5 bb 5d 81 e4 bc c0 3e c1 3c
       -0.00052190124 -0.0074973362 -0.027893716 0.023589492
0000a0 20 2d a9 bb 58 49 a7 bc f9 0e 12 bd 91 62 48 3c
       -0.00516285 -0.020420715 -0.03565881 0.012230531
0000b0 a9 f7 6d 3b 39 48 09 bc a9 7b 53 3c 08 8a ee 3b
       0.0036310947 -0.008379036 0.012907901 0.007279638
0000c0 3c 70 25 bc 43 75 0c 3d 80 54 b1 3c e8 64 92 bb
       -0.01009756 0.034291517 0.021646738 -0.0044675954
0000d0 9e c4 b5 3c 6d 98 b1 bc 92 c3 dd bc 2f b6 b3 bc
       0.022188481 -0.021679128 -0.027070794 -0.021937458
0000e0 54 29 37 3a 84 3f f0 3c 82 15 09 3d fe 61 09 bd
       0.00069870544 0.029327162 0.033467777 -0.03354072
0000f0 36 6d c0 ba e9 4c 97 bc a3 6e b1 3c 2f 49 9c bc
       -0.0014680985 -0.01846929 0.021659201 -0.019077865
000100 54 18 d1 bc 7b c0 0a 3d 98 07 08 3d 15 89 ef 3c
       -0.025524296 0.03387497 0.033210367 0.02924017
000110 6d 96 aa 3c 9f 64 e3 3c 4f ae 86 3c 7f 3c 02 3d
       0.020823682 0.02775794 0.016440539 0.031795975
000120 c0 f8 a9 3b 58 b5 6f bc 0c 7f 73 3c ea e1 5a 3c
       0.005187124 -0.014630638 0.014861833 0.013359526
000130 14 88 b4 3a 57 b3 98 3b b4 12 03 3d 0c 3d 9a 3c
       0.0013773465 0.004660051 0.03200026 0.018827938
000140 a7 e6 30 bc 60 c3 7f 3c b5 9b 0f bd 17 cb 3f bc
       -0.010797179 0.015610546 -0.035060603 -0.011706135
000150 6f 6a 5b 3c 4f 9e f5 bc 2a 61 02 3d 8c 92 d0 bc
       0.013392075 -0.029982714 0.031830944 -0.025460504
000160 11 a5 14 3d d6 ee 66 bc 4b fa f7 3c 57 26 a8 3b
       0.036290232 -0.014095029 0.030270716 0.0051315236
000170 ca 36 6e bc c7 cc 83 bc fb 29 ca bb d0 bf 85 ba
       -0.01453943 -0.016088856 -0.0061695552 -0.0010204259
000180 41 9d fd 3c 14 72 9a bc 23 ee 3b ba fd 6b da 3c
       0.030958774 -0.018853225 -0.0007168969 0.026662821
000190 b4 d9 16 bd 3c 2e 0a bc be df 5b bc cf db 8e bc
       -0.03682871 -0.008433875 -0.0134200435 -0.017438797
0001a0 02 2e b9 3c 64 dc 0d bc 17 c7 98 bc af 35 d4 3c
       0.022604946 -0.008658502 -0.018649621 0.025904505
0001b0 46 30 d8 bc db 40 a9 3b f1 d4 fb ba 6e 13 fc bc
       -0.026390206 0.005165202 -0.0019213242 -0.030770984
0001c0 39 88 98 3c bc a8 c2 bc 8c ba 9f bc 57 14 f9 bc
       0.018619644 -0.0237621 -0.019498132 -0.030405207
0001d0 30 54 17 bd f0 b5 81 bc d2 be 9c 3c d0 8e 98 bb
       -0.03694552 -0.015833825 0.019133959 -0.0046556965
0001e0 5c e9 af 3c 09 a7 94 3c 5a b8 c8 bc 7b f8 f9 3c
       0.02147358 0.018146055 -0.024501968 0.030513993
0001f0 42 c3 64 39 13 46 6c bc 38 21 14 bd 1b 4e 40 3c
       0.00021816514 -0.014421004 -0.036164492 0.011737372

fc2.weight f4 [128, 128]
000000 73 77 a5 bd 21 e6 a6 3d 82 69 1f bc 85 55 ae bc
       -0.08079424 0.08149362 -0.009729745 -0.021281013
000010 90 31 53 3e fa f6 86 3c a2 35 a3 3d 84 6c 29 bd
       0.20624375 0.01647519 0.07969214 -0.041363254
000020 ca 6e c7 3d 1a 63 68 ba 6d 18 13 3d 70 2d 88 3d
       0.09737928 -0.0008864865 0.035911966 0.066492915
000030 ef e1 34 bd c1 1e 52 bd 58 96 be bc 2f 59 9b 3c
       -0.04416078 -0.05129886 -0.023265049 0.018963424
000040 45 44 56 bd 40 fb 8f 3d 79 d4 d5 3d 5d 5e 81 bd
       -0.0523112 0.07030344 0.104409166 -0.063168265
000050 b5 e9 2f 3d b9 e2 03 bd e6 17 90 bd e2 f8 b6 bd
       0.04294749 -0.03219864 -0.07035808 -0.089341894
000060 ee 96 9f bd fc 06 c9 bc 22 92 3a 3d d4 e4 8f bd
       -0.077924594 -0.024539463 0.04554952 -0.070260674
000070 ff 3c 4a 3c 88 61 1d bd 67 e0 86 bc 90 aa 97 3d
       0.012343644 -0.03842309 -0.016464425 0.07405579
000080 67 a5 42 3d bc e9 b3 3d de e1 c0 bd 23 67 78 bd
       0.04752102 0.08784816 -0.09418081 -0.060645234
000090 51 86 ec 3b ec ea 7b bc 5e 3b 85 3d 37 61 8b bd
       0.00721816 -0.015375834 0.06505464 -0.06805652
0000a0 ea 4f ad 3d ea a9 a6 3d 73 b7 85 3d 82 3b 97 3d
       0.08462508 0.08137877 0.06529131 0.07384397
0000b0 6c 02 dd 3c ae 25 4a bd 99 ea cb bd e8 0c 0b 3c
       0.026978694 -0.04935234 -0.09956855 0.008486964
0000c0 88 12 f3 b9 ed f2 b6 3d eb 05 2a 3d 51 4d 1a bd
       -0.0004636238 0.08933053 0.04150955 -0.03767139
0000d0 00 86 8c 3a 19 ac c4 bc ef 2c af 3d ee b7 28 3c
       0.0010721087 -0.024007844 0.08553492 0.0102977585
0000e0 1c e9 2c bd 64 27 02 3d e8 11 76 3d c6 b3 83 3d
       -0.042214498 0.031775847 0.06007567 0.064307734
0000f0 d0 6a 95 bd 16 1d 97 ba 59 30 bd 3c 53 b4 4b 3d
       -0.072957635 -0.0011529054 0.023094343 0.049732517
000100 fc 20 58 3d 47 9b 6e 3d 33 c7 9d 3d 8d 42 2e bd
       0.05276583 0.058253553 0.0770401 -0.042543937
000110 16 18 01 be 62 bd e9 3c b2 bb 8a bd 2d c1 a2 3d
       -0.12606844 0.028532688 -0.06774081 0.079470016
000120 29 68 9e bd 7b 90 b1 bd 63 59 8e ba d2 25 63 bd
       -0.07734711 -0.086701356 -0.001086038 -0.05545599
000130 ee 52 b6 3d 54 20 a1 bd e5 c4 b2 3d 8b 6c 45 bd
       0.08902536 -0.07867494 0.08728961 -0.048199218
000140 e6 9e 32 bd 14 3d d2 3d 05 85 8b 3d 6c 96 9c 3d
       -0.04360857 0.10265556 0.06812481 0.07645878
000150 9a b1 7c 3d ac 15 92 3d ce ab 2f bd 4c ed ea bb
       0.06169281 0.0713304 -0.042888455 -0.0071694013
000160 63 c5 35 3c d0 5b aa bb 06 50 a0 bd 1d 71 7b bd
       0.011094424 -0.005198933 -0.07827763 -0.06138717
000170 b6 eb 97 bd 01 fa 5a 3c 08 b4 b2 bd 95 60 5c bd
       -0.07418005 0.01336527 -0.087257445 -0.053803045
000180 2f 2d 1b 39 da 26 44 bd 04 81 69 3d b4 10 d9 3c
       0.00014798784 -0.047888614 0.057007805 0.026497222
000190 2e 21 91 3d f9 7d 03 3d 9a 32 85 bd 00 dd d4 3c
       0.07086407 0.03210256 -0.06503792 0.025984287
0001a0 25 ec 9a bc 2d 1c 03 bd c5 2f 8a bd 67 79 43 3c
       -0.01891143 -0.032009292 -0.067473926 0.0119308
0001b0 6d e0 46 bd b1 ff 53 bd 97 0b ac bd 85 f0 16 bc
       -0.048553873 -0.05175752 -0.08400648 -0.009212618
0001c0 2e 79 59 bd 37 6d 11 3d 41 85 06 3d 43 93 cd 3d
       -0.05309408 0.035504546 0.032841925 0.100378536
0001d0 c6 83 3f bd 1b 68 f2 3c 08 95 93 3d af b6 a3 3c
       -0.04675653 0.029590657 0.0720616 0.019984571
0001e0 e3 b9 09 bd 8c f2 3c bd 12 52 eb bd 2e 47 86 3d
       -0.03362454 -0.04612975 -0.11490263 0.06556545
0001f0 03 f0 d5 3c 55 31 99 bd 61 2a 3a be 19 3e f9 bd
       0.026115423 -0.074801125 -0.18180229 -0.12170047
000200 08 c1 42 3b e4 59 9b bd be 3c 2c 3d 59 11 05 bd
       0.0029717106 -0.07585505 0.042050116 -0.032487247
000210 69 bf ab bd 19 e4 9e bd 78 ad 1c 3b fd c5 1e 3d
       -0.08386118 -0.0775835 0.0023907106 0.038763035
000220 a8 eb e1 3d 48 84 0c bd 7d 6d 61 3d ad e0 8d 3c
       0.11031276 -0.03430584 0.055036057 0.017319048
000230 bb 67 98 bd 68 f5 2a 3d 55 63 01 3d 0e 5b 2d bc
       -0.0744166 0.041737944 0.03158887 -0.010580791
000240 0f 9b e6 bc e1 74 5f bd c4 c2 7e bc 67 d9 86 3c
       -0.02815011 -0.054554824 -0.015549365 0.016461087
000250 ea 73 ba bc 00 96 04 3d d3 c7 53 3d 57 63 49 bd
       -0.02276035 0.032369614 0.05170424 -0.049167003
000260 b6 60 57 3d 02 5b 8b 3d f0 81 a2 bb fd 5e 80 bd
       0.052582465 0.06804468 -0.0049593374 -0.062681176
000270 a7 b7 a4 bd 35 af dd bc 2c fb 76 bd 5f 29 dd 3c
       -0.080428414 -0.027061084 -0.06029813 0.026997266
000280 64 71 88 bd 00 8b 06 3d 16 dc 0f bd a5 c5 50 bd
       -0.066622525 0.032847404 -0.035122 -0.05096974
000290 89 f4 a3 3b 04 4b ce 3c cf 08 05 3d cd fe 80 3d
       0.005003516 0.025182255 0.032479104 0.062985994
0002a0 f6 b7 ae 3d de bc a2 bd ff 11 98 3c 00 9b 7a ba
       0.085311815 -0.0794618 0.018563269 -0.000955984
0002b0 86 96 f0 3c 83 c0 8e 3c 58 04 d9 bc 40 ab 2f 3c
       0.02936865 0.017425781 -0.02649133 0.0107219815
0002c0 64 dc ea bb d9 ed 24 3c d2 c9 2e bd 78 cf 56 3d
       -0.007167386 0.010066473 -0.04267294 0.05244395
0002d0 4a be 1d 3d fe a3 5b bd 14 82 7e bb 7d f0 c0 3d
       0.038511552 -0.053623192 -0.0038834857 0.094208695
0002e0 77 a4 c7 3d 70 0f 86 bd 97 00 a0 3d 67 39 92 3d
       0.09748166 -0.06545913 0.078126125 0.07139855
0002f0 8a e7 9f bd 74 b8 6b bd 6d ba 30 3d ee 0b 27 3c
       -0.078078344 -0.057548955 0.04314654 0.010195715
000300 08 59 0d 3c 10 34 aa bd 67 f8 9a bc 5a ed 82 bd
       0.008627184 -0.083107114 -0.018917276 -0.063929275
000310 b6 86 e2 bc be 45 92 bd 11 80 7d bd 5e 11 18 bc
       -0.027652126 -0.071422085 -0.06188971 -0.009281484
000320 8e 90 54 3d d2 ee 45 bd 93 8c 50 bd d3 17 8f bd
       0.05189567 -0.04832346 -0.050915312 -0.06986966
000330 88 14 55 bd 1c 00 89 bd fe aa 4c 3d b9 e2 b9 3b
       -0.052021533 -0.06689474 0.04996776 0.0056727794
000340 9f 4a c7 3d b4 57 c0 bd d0 24 79 3c 5c 70 2e 3d
       0.0973103 -0.09391728 0.015206531 0.042587623
000350 43 a8 7b bd 13 95 47 bb 47 02 d2 3d 9d 85 f1 3c
       -0.061439764 -0.0030453845 0.102543406 0.029482657
000360 d4 ba b8 3b 48 02 8a 3c 91 94 ce bd 04 6c 8c bd
       0.005637506 0.01684679 -0.100869305 -0.0685654
000370 98 85 5c 3c 6e 9e 8f 3d 63 80 a1 bd 8f 24 60 3d
       0.013459586 0.0701264 -0.07885816 0.054722365
000380 97 15 81 3c eb 60 0b bd ec 0a 83 3d 09 c1 5e bd
       0.015757365 -0.034027975 0.063985676 -0.05438331
000390 29 ae 96 3d 78 a8 27 bd de 2d 29 3d 66 92 4e 3d
       0.07357437 -0.04093215 0.041303508 0.050432585
0003a0 a4 5c 13 bc cb b3 d3 bc 27 f0 c1 bc 79 c7 aa 3d
       -0.008994255 -0.025842568 -0.023674084 0.08338828
0003b0 55 29 d2 bb 7d a8 3f bd 37 a9 02 3d 5e db 87 bd
       -0.0064136186 -0.046791542 0.031899657 -0.06633638
0003c0 11 96 65 bd 2f 7c 28 3c d6 2a 19 bd 5f 4b 11 3d
       -0.056051318 0.010283514 -0.037394367 0.03547227
0003d0 08 a1 c8 bc e3 90 67 bd 23 1c 66 3d cb 7d 83 bd
       -0.024490848 -0.05653466 0.056179177 -0.064204775
0003e0 f2 60 83 bd 4d aa e9 bd bc de 9e bc 12 d0 8d 3d
       -0.06414975 -0.114094354 -0.019393317 0.06924452
0003f0 c3 77 ae bd e2 56 bb ba 83 1d 2b bd 31 d9 b5 3d
       -0.085189365 -0.0014292861 -0.04177619 0.088793166

fc2.bias f4 [128]
000000 a1 25 97 bd 0c e2 3a 3c bb 17 4c bd 35 bd 8c bd
       -0.07380224 0.011406433 -0.04982732 -0.06872026
000010 9f 16 91 3d 43 9f 58 bd 27 20 8e 3b de d3 70 bd
       0.07084393 -0.05288626 0.004337329 -0.058795802
000020 3b c7 6f 3d a4 64 13 bd a5 b5 1b 3d 8e 9b 0a be
       0.05853961 -0.03598465 0.038015027 -0.13535902
000030 2d 4c c1 bd 83 40 07 be 6c 08 13 bc 19 dd 8b 3d
       -0.094383575 -0.13208203 -0.008974176 0.068292804
000040 5e fc 53 bd a6 30 44 3d da 0f e9 3b 30 40 54 3c
       -0.051754348 0.047897957 0.0071124854 0.012954757
000050 c8 d9 25 3d 55 cc 47 bd 8b 88 33 bd 30 b5 98 bd
       0.040490896 -0.04877885 -0.04383139 -0.07456434
000060 f2 ee 16 3c ca a6 d4 3d 4a ce 44 bd 5d 9b 79 3d
       0.009212242 0.10383375 -0.048048295 0.06093918
000070 62 43 83 bd 50 11 93 bb 43 a6 aa bd 0d 14 97 ba
       -0.064093366 -0.004488148 -0.08332493 -0.0011526361
000080 b8 bd bd 3c 9f 6f c7 3c c4 fb 97 3d fc ae b8 bd
       0.023161754 0.024345217 0.07421067 -0.090177506
000090 75 fa 6d 3b b8 5a bf bd e2 e0 70 bd 2a d8 07 be
       0.0036312614 -0.09343475 -0.058808215 -0.13266054
0000a0 1d bf 8b bd fd 70 2e bd b8 40 7a bd 75 b9 0f 3d
       -0.06823561 -0.042588223 -0.061096877 0.035088975
0000b0 fb e8 9f 3d d8 91 0e 3c 0c 6b 6d 3d ae 4f 53 3d
       0.078081094 0.008701764 0.057963416 0.05158966
0000c0 4f e2 a5 bd 33 e3 8b bc 84 12 87 bd 40 50 3f 3c
       -0.080998056 -0.01707611 -0.065953285 0.011676848
0000d0 78 98 07 bd 51 c2 01 3d d8 b1 15 bd 0c c2 24 3d
       -0.03310439 0.031679455 -0.03654656 0.04022412
0000e0 f8 5c 8e bd 0d 87 24 bd a1 f0 76 3d 4d 0d 1a 3d
       -0.06951326 -0.040167857 0.060288075 0.03761034
0000f0 77 bb 9b 3d 19 a4 ca bd e7 21 94 3d 4d 9f 3c 3d
       0.076041155 -0.098945804 0.07233029 0.04605036
000100 44 1e 02 bb 3b c0 c1 bd 95 b5 38 3d b2 f1 00 3c
       -0.0019854465 -0.09460493 0.045095045 0.007870125
000110 24 35 8a bd 49 19 1f 3d 3e 2f fb 3c 1a eb 7f 3c
       -0.06748417 0.038842473 0.030662175 0.015620017
000120 5a 06 ed bd 92 ba a9 bd 65 76 23 bd 4d a2 80 3c
       -0.11573477 -0.082875386 -0.03990783 0.015702391
000130 db 42 21 bc b5 a7 a3 bd 46 37 0f bc 83 9d d4 bd
       -0.0098426 -0.07990972 -0.008741206 -0.103816055
000140 31 d4 c4 3d 19 ff 48 bd 56 99 ba 3b e2 d2 be bd
       0.09610785 -0.049071405 0.0056945486 -0.093175665
000150 ce e1 29 3d 21 88 b0 3d 6c 99 ac bc 85 b9 a4 bb
       0.04147511 0.086197145 -0.021069251 -0.0050269985
000160 b3 c3 7d bc 06 89 e0 bd a4 28 d4 bd 10 34 a1 bc
       -0.015488553 -0.10963635 -0.10359314 -0.019678146
000170 2b cb e3 bd 3c 61 8b 3d 5c ee c4 bc d0 e2 ab bd
       -0.111227356 0.06805655 -0.02403944 -0.083928704
000180 d9 4d c1 bb 75 a2 5e bd 64 09 10 bd 7b d6 9a bd
       -0.0058991727 -0.05435415 -0.035165206 -0.0756044
000190 03 f9 8f 3d 58 e0 c5 3c e8 30 41 3d 9b 8d 73 3a
       0.07029917 0.024154827 0.04716578 0.0009290815
0001a0 94 0f 9a 3d f5 c3 e9 3c d6 47 8a 3d 88 90 ae bd
       0.075225025 0.028535822 0.06751983 -0.08523661
0001b0 eb 19 8b bd c1 ac 84 3c 35 b1 46 3c e0 1a 72 bd
       -0.06792053 0.016195657 0.01212721 -0.05910766
0001c0 b5 a7 96 bc d3 ec 90 bd ef 21 a1 3c 0f 15 cf 3b
       -0.018390516 -0.07076421 0.019669501 0.006319649
0001d0 7e dd c2 bc 47 06 9e bd 57 8c 21 3c 01 dc e7 3c
       -0.023787256 -0.07716041 0.00986012 0.028303148
0001e0 80 4b 01 be ea a1 a8 bd 75 d4 19 3d 47 21 4e 3d
       -0.12626457 -0.08234008 0.03755613 0.050324704
0001f0 c6 77 3d 3c 5b 81 32 3d fe 28 a5 bd 87 3b 4f bd
       0.011564201 0.043580394 -0.08064459 -0.05059388

fc3.weight f4 [128, 128]
000000 21 da c0 3b 8f 8c 33 3d 0c 9d 3f 3b 3f 70 37 3d
       0.005885378 0.04383522 0.0029237894 0.04478478
000010 c9 1a e2 3c 9c 7d 40 3b fc ac 0f 3c a9 08 2a 3d
       0.027600663 0.0029371744 0.00876927 0.041512165
000020 59 09 4f bd 22 c2 03 3d b5 be 0f 3c 93 f6 2e bd
       -0.050546024 0.03216756 0.008773495 -0.04271562
000030 c9 a1 57 bd a5 f0 14 bd 33 0a 6e bc 6c 69 11 3b
       -0.052644525 -0.03636231 -0.014528799 0.002218808
000040 9e da 02 3d d5 19 79 bd e9 eb 4c 3d 92 d3 46 3d
       0.03194677 -0.06081565 0.05002967 0.048541613
000050 66 e1 a0 bd 29 55 41 3d 2a e7 a5 bd f6 a6 a9 bd
       -0.07855491 0.047200356 -0.08100732 -0.082837984
000060 85 ce c0 bc d4 e0 d4 bc ce 40 90 bc a6 ca 1f bd
       -0.023535976 -0.025986113 -0.017609026 -0.03901162
000070 34 55 a5 3d 79 83 38 3d eb 8c 3b bd d6 06 19 3d
       0.08072892 0.045047257 -0.045788687 0.037360035
000080 99 d1 2d 3d 98 1d e4 3b 08 84 90 bc 1c 7e ee 3c
       0.042436216 0.0069615357 -0.017641082 0.029112868
000090 3d 27 b3 bd e9 40 09 3c 19 44 60 ba c3 16 11 bd
       -0.087477185 0.008377292 -0.0008555069 -0.035422098
0000a0 18 81 99 bc e2 f1 b8 bc 49 72 5e 3d f5 4a 01 3d
       -0.018738315 -0.022576276 0.05430821 0.031565625
0000b0 69 77 55 bc 90 63 ad bd 2c 59 ca 3c 39 3a 5e bd
       -0.013028958 -0.08466256 0.024700724 -0.054254744
0000c0 49 20 6f bd 53 01 34 bd ee 36 46 bc 34 7c 8b bd
       -0.0583804 -0.043946575 -0.012098057 -0.06810799
0000d0 17 47 3e bd e3 86 e1 bc 82 5d 99 bd 35 26 15 3d
       -0.046454515 -0.02753014 -0.07488538 0.03641339
0000e0 e5 09 89 bc 9b ac 1f bd 40 13 5e 3d 08 75 9c bd
       -0.01672835 -0.03898297 0.054217577 -0.076395094
0000f0 c3 4a 27 3d 76 8a 33 bd b7 41 b2 3d 1b 08 92 3d
       0.040842783 -0.04383322 0.0870394 0.07130452
000100 91 49 87 3d 0f b4 a6 bd bf 0c 8f bd 4d 1b 61 bb
       0.066058286 -0.08139812 -0.06984853 -0.0034348548
000110 48 b1 1a 3b 65 8f ac bc 2e 06 75 bd 07 de b5 bd
       0.0023604203 -0.02106447 -0.059820347 -0.08880239
000120 e1 bb 93 bc c1 79 07 3d ea 30 ae 3d d4 7b 87 bc
       -0.018033924 0.033075098 0.08505423 -0.016538538
000130 5f b7 bd bd d7 e9 ea bc f8 c4 f9 bc e4 c5 b3 3c
       -0.09263491 -0.028675957 -0.03048943 0.021944948
000140 4d 23 3f bd ff 58 89 3d 6e db 96 bd 54 fa 61 bd
       -0.046664525 0.06706428 -0.07366072 -0.055170372
000150 e6 25 89 bd 01 be f0 bc 5d ae 97 3d 91 5f 15 3d
       -0.06696682 -0.029387476 0.07406304 0.036468092
000160 8c af 11 3d ab 1e c4 bc ae db 0b 3d 2a 50 7e 3d
       0.035567805 -0.023940405 0.03414505 0.06208817
000170 97 94 09 3d 86 d6 76 bd 5f fa a7 bd da b6 5d bd
       0.033588972 -0.06026318 -0.08202051 -0.05412946
000180 cd 9e e1 3b 6b 77 b6 bd 7f 11 28 bd 3b 2d 55 bd
       0.0068853856 -0.08909496 -0.04103231 -0.05204509
000190 93 93 4c bd 7a f0 87 bd e7 54 7c 3d 0f c0 7e bd
       -0.049945425 -0.06637664 0.061604407 -0.06219488
0001a0 27 4f 65 bc 67 27 a6 bb 21 4b 6e bd cf b1 6c 3d
       -0.013995922 -0.005070615 -0.058177117 0.05778676
0001b0 db 03 c5 3c 93 e1 43 bd bf c1 56 3d d4 2d 67 bd
       0.02404969 -0.047822546 0.052430864 -0.05644019
0001c0 26 6b d5 bb 76 67 ac bd 2f 8d c3 3c da a7 68 ba
       -0.006513017 -0.08418171 0.023871033 -0.00088751095
0001d0 e5 7f 1c 3d 9a 00 62 bd 7c be 00 bd 1a 95 25 bc
       0.038207907 -0.055176355 -0.03143166 -0.010106349
0001e0 2b a0 16 3d a5 ef 76 3d f1 d7 03 bd 8a e1 9b bc
       0.03677384 0.060287137 -0.03218836 -0.019028444
0001f0 50 17 70 bd b7 ed 3f bd ba 2e c8 bc c1 9a 42 bd
       -0.058615983 -0.046857562 -0.024436343 -0.047510866
000200 ad e9 0e bd fb 9d 97 3d ae 82 95 bc 34 e8 79 39
       -0.03489082 0.07403179 -0.01825079 0.00023832993
000210 62 35 b8 3d b4 b8 81 bc 11 f0 5f 3b 66 ec 48 bd
       0.08994557 -0.015835144 0.003417019 -0.049053572
000220 ea d9 66 bd cf 3d 0f 3e cb 19 a6 3b fa 85 d7 bd
       -0.056360163 0.13988422 0.0050689927 -0.10523601
000230 7e f4 6a bc 67 08 1f 3e 3e a1 bd bd 0f 09 bb bd
       -0.014340518 0.15530549 -0.0925927 -0.09132587
000240 51 80 89 3d eb 25 e5 bc 97 9d 1b 3d bc e6 a1 3d
       0.067139275 -0.027972182 0.037992086 0.07905337
000250 78 c5 f7 bd ed 13 fc 3c 76 10 00 3e a9 94 09 bd
       -0.12098211 0.03077122 0.1250628 -0.03358904
000260 bc bf d3 3c 9f fc c5 bd 8f e1 8c 3d e5 db 52 3d
       0.025848262 -0.09667324 0.068789594 0.05147924
000270 45 f9 36 bd 74 34 ed 3d 27 e0 d8 3d 9d 73 08 bd
       -0.044671316 0.1158227 0.10589629 -0.033313382
000280 cf 38 9c bd 5e 5d b9 3b 31 7a 93 bd a0 fc 7d bd
       -0.07628023 0.005656882 -0.072010405 -0.0620085
000290 95 17 65 3d f9 7f ca 3d fa 30 13 3d 1b e3 0e 3e
       0.055930693 0.0988769 0.03593538 0.13953821
0002a0 b5 ae 9d 3c dc a0 04 3d 9f 57 f9 bc 2f b5 98 bd
       0.019248346 0.03237997 -0.030437289 -0.07456433
0002b0 75 0e 61 3d 6c 1b 18 bc 13 69 11 3d 32 3f b8 3d
       0.054945428 -0.009283882 0.035500597 0.089964285
0002c0 52 77 38 bd b5 af b1 bc c9 7d 21 38 1c 13 b5 bd
       -0.045035668 -0.021690229 3.8502538e-05 -0.088415354
0002d0 25 aa c2 3b f2 eb 41 3c 7e 34 8e 3d e5 67 c3 3a
       0.005940693 0.011836039 0.06943606 0.0014908282
0002e0 65 4c e8 3d cd d6 fd bc b6 ce f3 bd c0 2c ea 3d
       0.11342696 -0.030986214 -0.11904661 0.11434317
0002f0 93 ee f2 3d 6f ee 6f 3d 53 70 ac 3c ae af 42 bd
       0.11861911 0.058576997 0.021049654 -0.047530822
000300 74 21 2b 3d 31 ce 29 bc 79 ab f7 3d 49 37 81 bd
       0.04177995 -0.010364101 0.12093253 -0.06309373
000310 c1 71 80 bc 2d 0f a1 bd f8 5c 9c bd 2a fd 09 bd
       -0.015679242 -0.07864223 -0.0763492 -0.0336887
000320 cc a6 3f ba 54 cd 01 3e 7c 4e 58 3d 58 bf ed bd
       -0.00073109264 0.12675983 0.052809224 -0.116087615
000330 56 0f d5 3d 69 12 14 bd 2a cc 10 be d9 01 73 bd
       0.10403316 -0.03615037 -0.14140382 -0.059327934
000340 38 a8 4e bc 77 99 0d 3d 60 ea 9f bd 5c e4 f8 3c
       -0.012613349 0.034570184 -0.07808375 0.030382328
000350 ee 18 a1 3d f0 71 cc 3c 0a ef 95 bc ef 11 1d bd
       0.07866083 0.024956673 -0.01830246 -0.03834718
000360 6c a1 e5 bd a3 1a 38 bc 94 69 78 3d e2 8c a4 3b
       -0.112124294 -0.011236819 0.060647562 0.0050216774
000370 d2 cc 8f bd ad 0a a2 bd b4 91 03 be 88 9a 70 3d
       -0.07021488 -0.079121925 -0.1284855 0.058741122
000380 78 27 db bd 10 2c 59 3d b2 b6 a8 3d 1a 9a b2 bc
       -0.107008874 0.053020537 0.08237971 -0.021801997
000390 59 0c 82 3d 41 27 35 bc 8d d2 c3 3d f3 33 0f 3e
       0.063500114 -0.011056722 0.09561644 0.13984661
0003a0 c0 a1 6a bd ca c2 bd 3d e2 5e 55 bc 4e fb fe 3d
       -0.057283163 0.09265669 -0.01302311 0.12450276
0003b0 0e 70 c3 3d 58 d5 35 bc 6e 1e e6 bd 13 c4 84 bd
       0.09542857 -0.011098228 -0.11236273 -0.06482711
0003c0 4b 95 97 bd 16 26 c1 3d d8 82 3d bc 7b ef 98 3d
       -0.07401522 0.094310924 -0.01156684 0.07467552
0003d0 45 ca 8e bd 5c 5e cb 3c 7b 35 ae 3d 29 c7 7b bd
       -0.069721736 0.024825267 0.08506294 -0.06146923
0003e0 61 a5 d2 3c a9 89 ee bc 1e 5e cf 3c 89 b0 70 bc
       0.025713624 -0.029118376 0.025313433 -0.014690527
0003f0 cf d2 9f bc e2 60 01 3d fb 19 91 bd 6e 09 b3 3d
       -0.019509701 0.031586535 -0.070850335 0.08742033

fc3.bias f4 [128]
000000 bf 34 99 3d 0d b9 54 bd 94 87 1c 3d 52 e8 12 3d
       0.07480764 -0.05193429 0.038215235 0.03586609
000010 2f d0 1d be 83 89 39 bd 60 a8 34 be c1 9e 62 bd
       -0.15411447 -0.045297157 -0.17642355 -0.05532718
000020 cd 86 7d 3b e9 d6 7c 3c 3f b8 07 bb 1c 7b 9b bd
       0.0038685084 0.015432098 -0.0020709184 -0.075918406
000030 c8 41 38 3b f2 8d bb bd 20 6a 4a bd 99 92 5c bd
       0.002811538 -0.09157933 -0.049417615 -0.053850744
000040 a5 ca 70 bd 72 2f 6f bd 94 a4 c7 bd 6b cd 25 bd
       -0.058787007 -0.058394857 -0.09748188 -0.040479105
000050 ff 2f eb bd b3 59 1c 3d 91 dd dd bd 44 5e 54 bd
       -0.11483764 0.03817148 -0.10833276 -0.05184771
000060 a5 66 e7 3d 65 38 90 bc 5d ba 11 3d fa 98 66 bd
       0.11298875 -0.017605016 0.03557812 -0.056298234
000070 88 40 c5 bd 41 1c a3 bd 1b 0d 45 bc 07 86 82 3c
       -0.09631449 -0.079643734 -0.01202705 0.01593305
000080 68 52 3a bd 7e 50 8f bd f8 a7 59 3d 96 14 de bd
       -0.045488745 -0.069977745 0.053138703 -0.1084377
000090 18 ee 20 bc f1 85 29 be b8 df b6 bb a1 02 80 bc
       -0.009822391 -0.16555001 -0.0055808686 -0.015626254
0000a0 1a 13 2d be ba c3 a5 bc e4 4f 52 bd 7f 2a 8a 3d
       -0.16901818 -0.020234931 -0.05134572 0.06746387
0000b0 e0 65 cd bc fd 9a 43 bc 61 ae cf 3c 61 61 5b 3b
       -0.025072992 -0.011938808 0.025351705 0.003347479
0000c0 d3 89 ba bd 7f d7 4e bd 9d 73 8a bd cc 14 72 3d
       -0.09108319 -0.05049848 -0.06760333 0.059101865
0000d0 f2 45 77 bd 1f e3 77 bd f3 ef a7 bd 33 e0 97 3d
       -0.06036944 -0.060519334 -0.082000636 0.074158095
0000e0 d5 f9 c4 bd d9 ef 73 3d 57 f0 30 3d a4 d2 8e bd
       -0.09617964 0.05955491 0.043197956 -0.0697377
0000f0 13 b4 03 bd 33 5b a8 bd bf 49 a8 bd 49 60 04 bc
       -0.032154154 -0.0822052 -0.08217191 -0.008079597
000100 a6 bb cb 3c f9 3b 32 bd 8a df d2 bd 42 07 fe bd
       0.024869751 -0.043514226 -0.10296543 -0.12403728
000110 1b 65 98 3d 2c 91 50 bd 77 c5 a3 bd 29 4a 3f bc
       0.07441159 -0.050919697 -0.07996648 -0.011675396
000120 5e cb d5 bd 3b 4a b6 bc 80 84 07 be 8d 7d 0c be
       -0.1043918 -0.022252193 -0.13234138 -0.13719769
000130 07 6a 78 bc fc 88 f2 bd 56 8f eb 3c 1c f8 eb bd
       -0.015161998 -0.11842534 0.028754871 -0.115219325
000140 a9 9e f1 bd d2 a2 f7 bc 53 40 dd bc fb 40 80 3c
       -0.1179784 -0.030229006 -0.027008211 0.015655985
000150 40 8a 1f 3d 52 ac 74 bd c3 9d de 3c 48 c7 77 bb
       0.038950205 -0.05973465 0.027174836 -0.003780799
000160 77 89 fd bc 82 ee fd bc 7f 2d a2 bd bd dd a0 3d
       -0.030949337 -0.030997518 -0.07918834 0.07854793
000170 dd 99 65 bd 80 0a f1 3c d1 2a 16 3d 82 27 8f 3d
       -0.05605494 0.029423952 0.036661927 0.069899574
000180 33 30 89 bc aa ca 0b 3d 0f 31 6e 3c 70 88 88 bd
       -0.016746616 0.034128822 0.014538064 -0.066666484
000190 64 ad 41 3b 23 2f 21 3d d5 da 65 3d 98 4d f6 bc
       0.0029552812 0.039351594 0.056116898 -0.030066296
0001a0 91 04 73 bd f3 15 07 be 4e b7 93 bc d8 e6 c8 bc
       -0.059330527 -0.13191967 -0.018031742 -0.024524137
0001b0 25 ed 50 bd fd 40 12 bc ce 42 85 bd bf bd 79 3c
       -0.05100741 -0.008926627 -0.065068826 0.015242993
0001c0 7a f1 b2 bd e9 af 67 3d e2 cc 04 3d 19 0f bf bd
       -0.08737464 0.056564245 0.032421954 -0.093290515
0001d0 c0 43 ec bc be b6 3d bd a3 7f c7 3d a1 a3 e2 3b
       -0.0288409 -0.046316855 0.09741142 0.0069164787
0001e0 4e 16 16 be e8 3c 9e bd 34 8a 90 bd 4a 9c 56 3a
       -0.14656946 -0.07726461 -0.0705761 0.0008186741
0001f0 fd c3 03 bd cb 20 03 bd 0a 11 25 bc a5 b9 aa bd
       -0.03216933 -0.032013696 -0.010074863 -0.0833619

fc4.weight f4 [8, 128]
000000 43 f9 b6 bd dd ba c0 3e c1 d4 88 be 52 76 91 bd
       -0.08934262 0.37642565 -0.26724818 -0.07102646
000010 9d d2 ce bd 1b 6e 27 3e f7 b1 3d 3e 79 4e 64 3d
       -0.10098765 0.16350596 0.1852492 0.0557389
000020 1f 1b ce bd a3 a9 e3 3d 53 b9 2d be 87 eb a6 3d
       -0.10063767 0.1111634 -0.16965227 0.08150392
000030 bd 52 21 3d 32 c4 27 bd bb 96 d9 bd 7c 5f 5a 3d
       0.039385546 -0.04095859 -0.10624453 0.053313717
000040 e7 0b 8e 3d d3 8a 35 be c0 09 a4 3e 69 7d 2b bd
       0.06935864 -0.17728738 0.3203869 -0.041867647
000050 39 63 e0 be 4b 28 0d be d7 c6 ce 3d 80 cd cb 3d
       -0.438257 -0.13784902 0.100965194 0.099513054
000060 44 99 3c be fa a4 0c be 49 b9 a6 3d ff 8e 98 3e
       -0.18417841 -0.13734809 0.08140809 0.29796597
000070 a4 5d 91 bd 11 b7 4d bc ee ab a8 3c f8 47 d8 3c
       -0.07097939 -0.012555853 0.020589795 0.026401505
000080 9c 52 8b 3e 55 51 81 3d d4 0c 81 be e2 25 34 3e
       0.27211463 0.06314341 -0.252051 0.17592576
000090 0b e3 5f 3d ac a0 4f 3e 60 67 13 3e 04 7a 36 3e
       0.054659884 0.20276135 0.14394903 0.17819983
0000a0 c8 63 00 3e 09 a9 48 3d 2a 1d af 3d e2 36 df bd
       0.12538064 0.04898933 0.085504845 -0.1089914
0000b0 30 4b 60 bc eb 3e ef 3c 83 22 45 be 3d 9c 1c 3e
       -0.013689801 0.029204806 -0.19251446 0.15293975
0000c0 5e 6d 0e 3e f8 97 ff bd 43 13 6d bb 13 a0 cc bd
       0.13908908 -0.124801576 -0.003617481 -0.09991469
0000d0 16 9b e1 3c d0 61 04 3e 33 be 04 bd b6 56 23 be
       0.027539771 0.12927938 -0.03240795 -0.15951046
0000e0 d4 dd 12 3e e5 83 1f 3e a5 3b a7 bb e0 31 3b bd
       0.14342433 0.15577658 -0.0051035457 -0.04570186
0000f0 9b 62 04 be d2 0f b9 3c 9e 49 f3 bc f4 29 53 bd
       -0.1292824 0.022590552 -0.02969819 -0.05155368
000100 b8 6c 36 3e 56 31 84 bc a9 a7 35 3e 94 29 ab 3d
       0.1781491 -0.016136806 0.17739739 0.0835754
000110 88 a0 08 bc fe 5a e9 bc 5e 08 d4 3d 89 6e 73 3d
       -0.008339055 -0.028485771 0.103531584 0.059431586
000120 d1 6d 9d 3d e7 7a a0 3d ff f5 ad 3b 90 14 8e 3e
       0.076869614 0.07835942 0.005308866 0.27750063
000130 4d 72 24 3c 82 f8 0b 3e 7e 55 5f bc 53 d4 a0 3d
       0.010037017 0.13669017 -0.013631223 0.07852998
000140 c5 16 5b bc bd 5a 42 be 84 4d 87 bc c6 d0 86 3c
       -0.013372128 -0.18979926 -0.016516455 0.016456973
000150 45 d2 8e 3d 18 96 24 3d 3f eb 00 3c c5 3d 34 3d
       0.069736995 0.040182203 0.007868587 0.04400422
000160 a4 3f 8b be 36 8c 26 be 97 79 d2 3d da c0 bb bd
       -0.2719699 -0.16264424 0.10277098 -0.09167643
000170 22 66 53 3c f1 c3 33 3e d9 7d 3d 3d ca a5 5a bd
       0.012902768 0.17555214 0.046262596 -0.053380765
000180 5b dd 5c 3b af 66 b0 3d 52 ae d0 3c 37 eb 17 3d
       0.0033701274 0.08613335 0.025473747 0.037089553
000190 c6 6d 50 3d 8b 89 fe bc d2 5d dc bd 28 4c 3e 3d
       0.050885938 -0.031071445 -0.10760082 0.046459347
0001a0 03 c5 30 bd 3c 29 b4 3e b2 da 79 bc 0a 82 a0 bd
       -0.043156635 0.3518771 -0.015249895 -0.07837303
0001b0 65 0f 19 3d 10 fc a2 bd ac 31 5d be 33 3a 22 bd
       0.037368197 -0.07958233 -0.2160098 -0.039606284
0001c0 60 3c 8b 3e 4b 2f b7 bd a6 56 db bd 38 18 c7 3c
       0.271945 -0.08944567 -0.10709886 0.02430354
0001d0 93 ee 6a 3a c9 72 ab 3d 22 fc e4 bc 90 d1 bc bd
       0.0008961942 0.08371503 -0.027952258 -0.092196584
0001e0 fc a0 be 3d 66 d3 c9 bd 6b 32 4d bd 4e ef 5d bd
       0.09308049 -0.09854774 -0.05009691 -0.054183297
0001f0 6f 61 d4 3d f1 d5 b3 bd 04 92 27 bd 32 53 da 3d
       0.103701465 -0.087810405 -0.040910736 0.106603995
000200 78 e6 93 3d 57 45 85 be 5b 48 c4 3d e8 30 1f be
       0.07221693 -0.26029465 0.09584113 -0.15546
000210 0e 53 58 3c 27 3d 0b be a2 e3 b1 3d b6 14 0d 3e
       0.0132033955 -0.13597547 0.08685996 0.13777432
000220 ed 7f 55 3c c9 45 af 3d 4a 71 28 3e d4 fa cf 3d
       0.013030988 0.08558232 0.16449466 0.101552635
000230 7c 00 08 be de c2 dc 3d 4b 50 a2 bd 74 ec 27 be
       -0.13281435 0.107793555 -0.07925471 -0.16398793
000240 52 a5 17 be 75 d1 76 bd d2 61 7c bd 70 f5 14 bd
       -0.14809158 -0.060258348 -0.061616726 -0.03636688
000250 80 a1 16 3e c2 90 64 bb b7 52 ea bc 02 f9 17 bd
       0.14710045 -0.0034876321 -0.028603895 -0.037102707
000260 fc aa 7e 3e 70 af 81 3c 99 e8 52 bb 72 c9 2e 3d
       0.24869913 0.015830725 -0.0032182096 0.042672582
000270 d1 61 0c bc 6e 33 7a bc 04 f9 8b 3c 02 6c 90 3d
       -0.008568243 -0.015271051 0.017086513 0.07051851
000280 40 f7 18 3d 84 9b 90 bd e6 d7 8c bd d7 6c 9d 3d
       0.03734517 -0.07060912 -0.06877117 0.07686775
000290 18 6c db 3d 7b 7d fe bd 7d ab 89 bd ca c6 35 3b
       0.107139766 -0.12426277 -0.06722162 0.0027736896
0002a0 c4 58 de 3c f1 af 8e 3c 04 7d 19 be 10 be dc bc
       0.027141936 0.01741788 -0.14989096 -0.026946098
0002b0 35 91 08 bd 77 0b fc bd 22 a8 35 3d e1 cd 40 3b
       -0.033341605 -0.12306874 0.044349797 0.0029419588
0002c0 6e 0b f0 bd 4a 1e 28 3d b6 57 91 3d 1e 2f 9e bd
       -0.1172093 0.04104451 0.07096808 -0.07723831
0002d0 a0 ae 96 bd 49 07 55 3c 9c ed 65 bd b2 73 65 bc
       -0.07357526 0.013002225 -0.056134805 -0.014004635
0002e0 5d 92 42 bc 89 bd b3 3d 2e 74 27 3e d8 3d 28 be
       -0.011875716 0.08776385 0.16352913 -0.16429842
0002f0 f7 5f 64 bc 3a 3e 09 3e 23 81 4c bd 96 e4 84 3d
       -0.013938895 0.13402644 -0.049927842 0.06488912
000300 30 33 1c be 42 45 3e bd 3b 43 9a be 3f eb da bd
       -0.15253901 -0.04645277 -0.30129418 -0.10689401
000310 b4 55 d9 3d 39 8c cb 3d d5 85 af bc d4 c8 9a 3d
       0.1061205 0.09938855 -0.02142612 0.07557836
000320 e4 cf 91 bd b8 30 0c 3e 4c 48 cd 3d 91 35 fb bd
       -0.0711973 0.1369046 0.10023555 -0.12266076
000330 13 73 3d be 66 aa 42 be 45 1e 1f 3d bc 47 1a 3d
       -0.18500929 -0.19010314 0.038847227 0.037666067
000340 f7 60 89 3e d6 b0 10 bc 53 6e c3 3d 0e 91 91 bb
       0.2683179 -0.0088312235 0.09542527 -0.0044423407
000350 60 37 46 3d 50 94 ae 3d c9 90 a0 bd 77 bb 02 be
       0.048392653 0.08524382 -0.078401156 -0.12766825
000360 a6 6f 40 3e 30 ec 8c 3b ba 14 9c 3d d1 3e 40 bd
       0.1879259 0.0043006167 0.07621141 -0.046934906
000370 6d 36 f3 3b 88 cb 05 be af f0 03 be 39 b9 3c bd
       0.0074222595 -0.13065922 -0.12884782 -0.04607508
000380 54 10 ee bb 7e b9 00 bd 19 d3 03 3e 0f b7 3c 3d
       -0.00726513 -0.0314269 0.12873496 0.046073016
000390 48 22 16 bd ae 61 aa bd 2e ab ba 3d 4c 0e 03 3d
       -0.036653787 -0.08319412 0.09114681 0.031996056
0003a0 be fa 26 3c e2 f2 08 be a4 ff 25 be fe ed 7e 3d
       0.0101916175 -0.13373902 -0.162108 0.062238686
0003b0 ae 67 f3 3c bb 7f 05 3e 3b aa d6 3d b3 ee fb bc
       0.029712524 0.13037007 0.10481688 -0.03075347
0003c0 05 f8 23 3e ce cf b1 bc ca 19 36 be 88 d6 11 3e
       0.1601258 -0.021705534 -0.17783275 0.14241993
0003d0 75 b6 32 3d b8 43 a7 bd 10 7d 2f 3b d3 ce 6f 3e
       0.043631036 -0.08167213 0.0026777424 0.23418741
0003e0 31 de 82 bd 6b a9 65 3d a3 9a 3b 3d 0d 43 1e ba
       -0.06390036 0.056069773 0.04580177 -0.0006037213
0003f0 08 c3 40 3d 7f c2 96 3e ae 1c 2b be ee 77 ee bc
       0.047060996 0.29445264 -0.16710159 -0.029109921

fc4.bias f4 [8]
000000 a3 92 ae bd 91 01 bd bd 4d 8a 0f 3c f8 79 48 bc
       -0.085240625 -0.092288144 0.008761001 -0.012236111
000010 bc df 52 3d 23 db 82 3d 6b cf 9d 3b 84 db 87 3c
       0.0514829 0.06389453 0.004815986 0.016584165
